ablation_v3/visualizations/expert_data_with_manager/expert_weights.npy (npy, 846320 bytes, 1 tensors)

array f4 [4, 52887]
000000 df 35 5a bd ad 8a 26 3d 4e 16 73 bd c4 7e 4c bd
       -0.05327403 0.040659595 -0.059347443 -0.04992558
000010 7f ff e8 bc b3 87 39 3c 29 1f f0 bc 81 2f 3b 3d
       -0.028442143 0.011323857 -0.029311733 0.0456996
000020 60 c7 4f bd ef c1 17 bd e2 8a 56 3d 26 35 dc 3c
       -0.05072725 -0.037050184 0.052378543 0.026880812
000030 42 0d 46 bd 5b 3a ed bc cf 91 1d 3d 35 71 7c 3d
       -0.048352487 -0.02895849 0.038469132 0.0616314
000040 d9 19 20 3c c6 02 b2 ba 8f dd 12 bc 7c 7f 08 bd
       0.009771788 -0.0013581149 -0.0089639565 -0.033324704
000050 75 77 a7 3c ab d5 88 3c 4c b9 28 bd 81 b6 55 bd
       0.020442704 0.016703447 -0.041192338 -0.052176002
000060 83 a8 fc bc 68 b7 3a bd 2d 5d 07 bc 58 ca 3d 3d
       -0.030842071 -0.045585066 -0.008261961 0.04633555
000070 c0 54 a3 bc 5e f3 6e bd 09 00 55 bd 50 15 87 3c
       -0.019937873 -0.05833756 -0.052001987 0.016489655
000080 7f f5 60 3d 84 13 09 bd 78 34 92 bb 20 e6 4d 38
       0.054921623 -0.033465877 -0.004461821 4.909013e-05
000090 94 bb 56 bd eb 18 53 3d 69 b0 6c bd 84 ba 7a bc
       -0.052424982 0.051537436 -0.057785425 -0.015303258
0000a0 3b 83 89 3c da 62 39 3d 02 54 54 3d 07 10 ec 3c
       0.016786208 0.045260288 0.05183793 0.028816236
0000b0 af 86 bf bb 45 84 63 3d 84 d0 2f 3c 35 c3 b2 bb
       -0.005844913 0.055546064 0.010730866 -0.0054553994
0000c0 be f6 75 bc ac ce cd bb dd 45 52 bd 97 80 df 3b
       -0.015012441 -0.0062807407 -0.051336158 0.006820749
0000d0 3e b5 d7 3c 10 6d 58 bd 4d 69 a9 bb 23 88 11 3d
       0.02633154 -0.052838385 -0.0051700235 0.03553022
0000e0 22 5e ea bc 1e d4 77 bd ef 80 34 bd 58 fa bc ba
       -0.02860934 -0.060505025 -0.044068273 -0.001441787
0000f0 ed b2 56 bd 6d 8a 52 3d 32 ed 3f bd 4c 52 60 3d
       -0.05241673 0.051401544 -0.046857066 0.054765984
000100 9b fe 18 3d db 32 4e 3d 10 56 8b 3c 88 83 44 3d
       0.037352186 0.05034147 0.017008811 0.047977
000110 e8 e6 2a 3d 67 98 76 3d 81 60 3e 3d 4a 46 49 3d
       0.041724116 0.060203936 0.046478752 0.0491393
000120 38 d3 75 bd 47 c0 41 bb 4b 6c 63 3d 0a 5c 74 3c
       -0.060015887 -0.002956407 0.055523198 0.014914522
000130 05 6e 0f bd 57 07 0f 3d 7d 6a ec 3b d7 ea 4e bb
       -0.035017032 0.03491911 0.007214843 -0.003157308
000140 bb 81 07 3b ed ef 5e bd dc 22 69 bd 58 03 2a 3b
       0.002067669 -0.05442803 -0.05691801 0.0025941934
000150 6d f7 84 bd d6 57 e0 3c 52 c5 70 bd 11 e2 46 bd
       -0.06492505 0.027385633 -0.05878193 -0.048555437
000160 40 00 40 3d 5e 9a 06 bc bc 14 36 3d d0 b5 06 bc
       0.04687524 -0.008215515 0.044453368 -0.008222058
000170 24 41 0f 3d 11 45 c2 bc 9d 71 6a 3d 1c db c0 3c
       0.034974232 -0.023714574 0.057237256 0.02354198
000180 dd a4 1e bd 05 24 f9 ba 79 4e 60 3d ea 85 9a bc
       -0.038731445 -0.0019007927 0.054762337 -0.018862683
000190 98 25 62 3d a7 88 93 3a b5 20 57 bc 47 ec 5c 3d
       0.055211633 0.0011255936 -0.013130357 0.05393627
0001a0 cd 51 21 bd 47 fc ba 3b a8 5d 8d 3b 83 e5 73 bd
       -0.039384652 0.0057063433 0.004314143 -0.05954505
0001b0 34 fb eb bc 8a 96 30 3c cc 78 27 3c d5 1c 0c 3d
       -0.028806306 0.010778079 0.010221671 0.034207184
0001c0 ce 84 32 3b c5 ae 1a bc 01 ac c8 3c 38 9f 37 bc
       0.0027239802 -0.009441082 0.02449608 -0.011207394
0001d0 d9 07 25 bd 47 90 2c bb e0 74 0b 3d 23 59 d5 3c
       -0.040290687 -0.0026331113 0.034047008 0.02604348
0001e0 16 8a fa 3c 68 f9 a0 3c 3a f2 ac bc f1 88 3c bd
       0.030583423 0.019650176 -0.021111596 -0.046029035
0001f0 e2 30 92 bc 4f 81 81 3d b7 79 ef 3b 21 b2 0a bd
       -0.017845575 0.06323492 0.0073082107 -0.033861283
000200 e9 aa 62 3d 47 4b 8f bd f1 a0 c0 ba 14 dd 43 bd
       0.055338774 -0.0699678 -0.0014696402 -0.04781826
000210 27 56 48 3d d1 c5 0c 3d e4 9c f2 bb 15 6c 00 bd
       0.048910286 0.03436834 -0.0074039567 -0.031353075
000220 1a 2e f9 3c 99 a4 19 bd 69 99 85 bb 4c 64 43 bc
       0.03041749 -0.03751049 -0.004077126 -0.011925768
000230 dd 11 01 3c eb 52 8b bc 99 d1 5d 39 07 f7 57 3d
       0.007877794 -0.017007312 0.00021154284 0.052725818
000240 00 f0 03 bd 72 d8 ac bb a9 75 72 3d 70 55 f6 bb
       -0.032211304 -0.0052748257 0.05919424 -0.007517509
000250 a9 e2 2d bd 91 1a 05 bb 73 17 82 3b 77 01 84 3d
       -0.042452488 -0.0020310024 0.0039700805 0.06445592
000260 da 89 58 3d 79 43 24 3d 2e 7c 53 3d f7 88 2b bd
       0.05286584 0.04010341 0.0516321 -0.041878667
000270 bf de 7b bc 1d 96 b7 3b dd f8 be bb ae f7 4a bc
       -0.015372931 0.0056026117 -0.0058280067 -0.012388153
000280 e8 4e 34 bd 1b 37 6a 3d b8 8a cd bc db a5 d6 bc
       -0.044020563 0.05718146 -0.02509056 -0.026202133
000290 a2 49 31 3d fa 1d 0d bd 8d 2b dc 3c 6d 53 5b bd
       0.043283112 -0.034452416 0.026876235 -0.053546358
0002a0 a6 65 f4 3c cf 9b 24 bd 3d 8e ff 3b 74 9a a7 bc
       0.029833626 -0.040187653 0.0077989385 -0.020459391
0002b0 37 88 d8 bc 28 5b 2f bd e4 ac 5f bd 64 5e 3f bb
       -0.02643214 -0.042811543 -0.05460824 -0.0029200548
0002c0 91 db a3 3c a0 ea 28 bd 0e 92 73 3d ea d7 17 bd
       0.020002158 -0.04123938 0.05946546 -0.037071146
0002d0 f3 27 54 bd cb ea ec 3b 9f 77 5c 3d f3 ad d2 bb
       -0.05179591 0.007230138 0.053825017 -0.006429428
0002e0 a3 a4 1e 3a f4 96 c2 3c ec b3 00 3d 06 5c 6f 3d
       0.00060517545 0.02375362 0.031421587 0.05843737
0002f0 85 26 42 3d e3 78 5f bd 3a 0a 35 bd 8c fb 18 3d
       0.047400016 -0.054558646 -0.044199206 0.03734927
000300 65 bb 68 bd 96 3e 39 bd db 9e 63 3d 9b 99 6e bc
       -0.05681934 -0.045225702 0.05557142 -0.01456299
000310 cc 41 25 3d 05 e7 6c 3d 58 ce e3 bb 34 01 25 bd
       0.040345952 0.057837505 -0.0069520883 -0.04028435
000320 08 7e 40 bd b0 b9 03 bd 8e 31 85 bd 16 14 d4 3c
       -0.046995193 -0.032159507 -0.065035924 0.025888484
000330 fd d5 21 3d df 45 a6 bc 32 1b a8 bc 3e 01 df bc
       0.039510716 -0.020296989 -0.02052078 -0.027222272
000340 3c 55 2a bd 2d b7 55 bc 7b 62 8b 3c aa 15 48 bd
       -0.041585192 -0.013044161 0.017014733 -0.048848785
000350 f5 f9 aa bc 0e 90 5c bd 06 09 35 bb e8 60 0e 3d
       -0.020871142 -0.05384832 -0.0027623787 0.034760386
000360 2e 78 4c bd 1c 42 3c bd f2 46 0d bd ef 58 a7 bb
       -0.0499193 -0.045961484 -0.034491487 -0.0051070373
000370 47 34 83 3d fc 4f 8d bc 89 a8 75 bd 0d a8 6c bd
       0.064064555 -0.017250054 -0.05997518 -0.057777453
000380 e7 e9 30 bd fa 99 5f 3d 83 80 d5 3c 14 a1 3b bd
       -0.043191817 0.054590203 0.026062256 -0.045807913
000390 c4 c4 ec 3c 2b c0 4f bb ed f7 ea bc 00 ab 94 ba
       0.028902419 -0.0031700234 -0.028682673 -0.0011342466
0003a0 6c 23 b8 3c d5 d4 4a bd ef 97 9c bb 22 86 70 bd
       0.022477828 -0.04951938 -0.004778854 -0.05872167
0003b0 23 c0 4c bd 24 d4 81 3d 56 e4 ba bc 6d 78 27 3c
       -0.049987923 0.06339291 -0.022813957 0.010221583
0003c0 a1 81 98 bc f0 bd c3 ba 3b e1 42 3c 44 62 01 bd
       -0.0186165 -0.0014933925 0.011894519 -0.031587854
0003d0 d9 b2 3e 3c d3 a3 5e bd 84 02 5c bd f5 ea 75 3d
       0.01163932 -0.054355454 -0.053713337 0.060038526
0003e0 95 d6 3f ba a6 55 9d bc 27 5e 1c 3d aa e3 2f 3d
       -0.0007318047 -0.01920588 0.03817573 0.042941727
0003f0 38 d3 0c bd 37 d0 f4 bc b8 79 66 3d 0e b5 47 3d
       -0.03438112 -0.02988444 0.056268424 0.04875665
